a = 1

┌─────────────────────┬───────────────────┬────────────┬───────────────────┐
│ Layer (type)        │ Output Shape      │    Param # │ Connected to      │
├─────────────────────┼───────────────────┼────────────┼───────────────────┤
│ input_layer         │ (None, 1)         │          0 │ -                 │
│ (InputLayer)        │                   │            │                   │
├─────────────────────┼───────────────────┼────────────┼───────────────────┤
│ input_layer_1       │ (None, 1)         │          0 │ -                 │
│ (InputLayer)        │                   │            │                   │
├─────────────────────┼───────────────────┼────────────┼───────────────────┤
│ dense (Dense)       │ (None, 1)         │          2 │ input_layer[0][0] │
├─────────────────────┼───────────────────┼────────────┼───────────────────┤
│ dense_1 (Dense)     │ (None, 1)         │          2 │ input_layer_1[0]… │
├─────────────────────┼───────────────────┼────────────┼───────────────────┤
│ input_layer_2       │ (None, 1)         │          0 │ -                 │
│ (InputLayer)        │                   │            │                   │
├─────────────────────┼───────────────────┼────────────┼───────────────────┤
│ add (Add)           │ (None, 1)         │          0 │ dense[0][0],      │
│                     │                   │            │ dense_1[0][0]     │
├─────────────────────┼───────────────────┼────────────┼───────────────────┤
│ dense_2 (Dense)     │ (None, 1)         │          2 │ input_layer_2[0]… │
├─────────────────────┼───────────────────┼────────────┼───────────────────┤
│ add_1 (Add)         │ (None, 1)         │          0 │ add[0][0],        │
│                     │                   │            │ dense_2[0][0]     │
├─────────────────────┼───────────────────┼────────────┼───────────────────┤
│ dense_3 (Dense)     │ (None, 1)         │          2 │ add_1[0][0]       │
├─────────────────────┼───────────────────┼────────────┼───────────────────┤
│ dense_4 (Dense)     │ (None, 1)         │          2 │ dense_3[0][0]     │
└─────────────────────┴───────────────────┴────────────┴───────────────────┘
 Total params: 10 (40.00 B)
 Trainable params: 10 (40.00 B)
 Non-trainable params: 0 (0.00 B)
Epoch 1/10
1000/1000 ━━━━━━━━━━━━━━━━━━━━ 1s 533us/step - accuracy: 0.0016 - loss: 0.3692
Epoch 2/10
1000/1000 ━━━━━━━━━━━━━━━━━━━━ 1s 510us/step - accuracy: 9.3833e-04 - loss: 0.3595
Epoch 3/10
1000/1000 ━━━━━━━━━━━━━━━━━━━━ 1s 556us/step - accuracy: 0.0029 - loss: 0.3689
…
